trainingset size: 100000
validationset size: 10000
input_dims:  (64, 64, 3)
nb_labels:  200
nb_labels: 200
x_train.shape  (100000, 64, 64, 3)
y_train.shape  (100000, 200)
x_test.shape  (10000, 64, 64, 3)
y_test.shape  (10000, 200)
_________________________________________________________________
Layer (type)                 Output Shape              Param #   
=================================================================
conv2d_1 (Conv2D)            (None, 58, 62, 48)        3072      
_________________________________________________________________
activation_1 (Activation)    (None, 58, 62, 48)        0         
_________________________________________________________________
max_pooling2d_1 (MaxPooling2 (None, 28, 30, 48)        0         
_________________________________________________________________
conv2d_2 (Conv2D)            (None, 24, 30, 128)       30848     
_________________________________________________________________
activation_2 (Activation)    (None, 24, 30, 128)       0         
_________________________________________________________________
max_pooling2d_2 (MaxPooling2 (None, 11, 14, 128)       0         
_________________________________________________________________
conv2d_3 (Conv2D)            (None, 9, 14, 192)        73920     
_________________________________________________________________
conv2d_4 (Conv2D)            (None, 7, 14, 192)        110784    
_________________________________________________________________
conv2d_5 (Conv2D)            (None, 5, 14, 128)        73856     
_________________________________________________________________
activation_3 (Activation)    (None, 5, 14, 128)        0         
_________________________________________________________________
max_pooling2d_3 (MaxPooling2 (None, 2, 6, 128)         0         
_________________________________________________________________
flatten_1 (Flatten)          (None, 1536)              0         
_________________________________________________________________
dense_1 (Dense)              (None, 2048)              3147776   
_________________________________________________________________
dense_2 (Dense)              (None, 2048)              4196352   
_________________________________________________________________
dense_3 (Dense)              (None, 200)               409800    
=================================================================
Total params: 8,046,408
Trainable params: 8,046,408
Non-trainable params: 0
_________________________________________________________________
Epoch 1/100
 - 37s - loss: 5.0035 - acc: 0.0230 - val_loss: 4.7289 - val_acc: 0.0462
Epoch 2/100
 - 32s - loss: 4.5344 - acc: 0.0716 - val_loss: 4.3762 - val_acc: 0.0876
Epoch 3/100
 - 32s - loss: 4.2680 - acc: 0.1020 - val_loss: 4.1885 - val_acc: 0.1177
…
 - 32s - loss: 0.9026 - acc: 0.7444 - val_loss: 8.2146 - val_acc: 0.1499
Epoch 99/100
 - 32s - loss: 0.9171 - acc: 0.7411 - val_loss: 8.2763 - val_acc: 0.1485
Epoch 100/100
 - 32s - loss: 0.8999 - acc: 0.7439 - val_loss: 8.3150 - val_acc: 0.1429
training history:
{'val_loss': [… 'val_acc': [… 'loss': [… 'acc': [… Training time: 
3235.32248210907
Evaluation results:  [8.32690863647461, 0.1443]
_________________________________________________________________
Layer (type)                 Output Shape              Param #   
=================================================================
conv2d_6 (Conv2D)            (None, 58, 62, 48)        3072      
_________________________________________________________________
batch_normalization_1 (Batch (None, 58, 62, 48)        192       
_________________________________________________________________
activation_4 (Activation)    (None, 58, 62, 48)        0         
_________________________________________________________________
max_pooling2d_4 (MaxPooling2 (None, 28, 30, 48)        0         
_________________________________________________________________
conv2d_7 (Conv2D)            (None, 24, 30, 128)       30848     
_________________________________________________________________
batch_normalization_2 (Batch (None, 24, 30, 128)       512       
_________________________________________________________________
activation_5 (Activation)    (None, 24, 30, 128)       0         
_________________________________________________________________
max_pooling2d_5 (MaxPooling2 (None, 11, 14, 128)       0         
_________________________________________________________________
conv2d_8 (Conv2D)            (None, 9, 14, 192)        73920     
_________________________________________________________________
conv2d_9 (Conv2D)            (None, 7, 14, 192)        110784    
_________________________________________________________________
conv2d_10 (Conv2D)           (None, 5, 14, 128)        73856     
_________________________________________________________________
activation_6 (Activation)    (None, 5, 14, 128)        0         
_________________________________________________________________
max_pooling2d_6 (MaxPooling2 (None, 2, 6, 128)         0         
_________________________________________________________________
flatten_2 (Flatten)          (None, 1536)              0         
_________________________________________________________________
dense_4 (Dense)              (None, 2048)              3147776   
_________________________________________________________________
dense_5 (Dense)              (None, 2048)              4196352   
_________________________________________________________________
dense_6 (Dense)              (None, 200)               409800    
=================================================================
Total params: 8,047,112
Trainable params: 8,046,760
Non-trainable params: 352
_________________________________________________________________
Epoch 1/100
 - 42s - loss: 5.3003 - acc: 0.0044 - val_loss: 5.2983 - val_acc: 0.0050
Epoch 2/100
 - 42s - loss: 5.2991 - acc: 0.0045 - val_loss: 5.2983 - val_acc: 0.0050
Epoch 3/100
 - 42s - loss: 5.2991 - acc: 0.0044 - val_loss: 5.2983 - val_acc: 0.0050
…
