trainingset size: 100000
validationset size: 10000
input_dims:  (64, 64, 3)
nb_labels:  200
nb_labels: 200
x_train.shape  (100000, 64, 64, 3)
y_train.shape  (100000, 200)
x_test.shape  (10000, 64, 64, 3)
y_test.shape  (10000, 200)
_________________________________________________________________
Layer (type)                 Output Shape              Param #   
=================================================================
conv2d_1 (Conv2D)            (None, 58, 62, 92)        5888      
_________________________________________________________________
activation_1 (Activation)    (None, 58, 62, 92)        0         
_________________________________________________________________
max_pooling2d_1 (MaxPooling2 (None, 28, 30, 92)        0         
_________________________________________________________________
conv2d_2 (Conv2D)            (None, 24, 30, 256)       118016    
_________________________________________________________________
activation_2 (Activation)    (None, 24, 30, 256)       0         
_________________________________________________________________
max_pooling2d_2 (MaxPooling2 (None, 11, 14, 256)       0         
_________________________________________________________________
conv2d_3 (Conv2D)            (None, 9, 14, 384)        295296    
_________________________________________________________________
conv2d_4 (Conv2D)            (None, 7, 14, 384)        442752    
_________________________________________________________________
conv2d_5 (Conv2D)            (None, 5, 14, 384)        442752    
_________________________________________________________________
activation_3 (Activation)    (None, 5, 14, 384)        0         
_________________________________________________________________
max_pooling2d_3 (MaxPooling2 (None, 2, 6, 384)         0         
_________________________________________________________________
flatten_1 (Flatten)          (None, 4608)              0         
_________________________________________________________________
dense_1 (Dense)              (None, 2048)              9439232   
_________________________________________________________________
dense_2 (Dense)              (None, 2048)              4196352   
_________________________________________________________________
dense_3 (Dense)              (None, 200)               409800    
=================================================================
Total params: 15,350,088
Trainable params: 15,350,088
Non-trainable params: 0
_________________________________________________________________
Epoch 1/50
 - 75s - loss: 5.2999 - acc: 0.0041 - val_loss: 5.2983 - val_acc: 0.0050
Epoch 2/50
 - 67s - loss: 5.2991 - acc: 0.0046 - val_loss: 5.2983 - val_acc: 0.0050
Epoch 3/50
 - 67s - loss: 5.2991 - acc: 0.0045 - val_loss: 5.2983 - val_acc: 0.0050
…
