trainingset size: 100000
validationset size: 10000
input_dims:  (64, 64, 3)
nb_labels:  200
nb_labels: 200
x_train.shape  (100000, 64, 64, 3)
y_train.shape  (100000, 200)
x_test.shape  (10000, 64, 64, 3)
y_test.shape  (10000, 200)
_________________________________________________________________
Layer (type)                 Output Shape              Param #   
=================================================================
conv2d_1 (Conv2D)            (None, 58, 62, 48)        3072      
_________________________________________________________________
activation_1 (Activation)    (None, 58, 62, 48)        0         
_________________________________________________________________
max_pooling2d_1 (MaxPooling2 (None, 28, 30, 48)        0         
_________________________________________________________________
conv2d_2 (Conv2D)            (None, 24, 30, 128)       30848     
_________________________________________________________________
activation_2 (Activation)    (None, 24, 30, 128)       0         
_________________________________________________________________
max_pooling2d_2 (MaxPooling2 (None, 11, 14, 128)       0         
_________________________________________________________________
conv2d_3 (Conv2D)            (None, 9, 14, 192)        73920     
_________________________________________________________________
conv2d_4 (Conv2D)            (None, 7, 14, 192)        110784    
_________________________________________________________________
conv2d_5 (Conv2D)            (None, 5, 14, 128)        73856     
_________________________________________________________________
activation_3 (Activation)    (None, 5, 14, 128)        0         
_________________________________________________________________
max_pooling2d_3 (MaxPooling2 (None, 2, 6, 128)         0         
_________________________________________________________________
flatten_1 (Flatten)          (None, 1536)              0         
_________________________________________________________________
dense_1 (Dense)              (None, 2048)              3147776   
_________________________________________________________________
dense_2 (Dense)              (None, 2048)              4196352   
_________________________________________________________________
dense_3 (Dense)              (None, 200)               409800    
=================================================================
Total params: 8,046,408
Trainable params: 8,046,408
Non-trainable params: 0
_________________________________________________________________
Epoch 1/20
 - 52s - loss: 4.9639 - acc: 0.0273 - val_loss: 4.6741 - val_acc: 0.0533
Epoch 2/20
 - 32s - loss: 4.4739 - acc: 0.0755 - val_loss: 4.3168 - val_acc: 0.0938
Epoch 3/20
 - 32s - loss: 4.2003 - acc: 0.1083 - val_loss: 4.1202 - val_acc: 0.1165
…
