trainingset size: 100000
validationset size: 10000
input_dims:  (64, 64, 3)
nb_labels:  200
nb_labels: 200
x_train.shape  (100000, 64, 64, 3)
y_train.shape  (100000, 200)
x_test.shape  (10000, 64, 64, 3)
y_test.shape  (10000, 200)
_________________________________________________________________
Layer (type)                 Output Shape              Param #   
=================================================================
conv2d_1 (Conv2D)            (None, 62, 64, 48)        480       
_________________________________________________________________
activation_1 (Activation)    (None, 62, 64, 48)        0         
_________________________________________________________________
max_pooling2d_1 (MaxPooling2 (None, 30, 31, 48)        0         
_________________________________________________________________
conv2d_2 (Conv2D)            (None, 26, 31, 128)       30848     
_________________________________________________________________
activation_2 (Activation)    (None, 26, 31, 128)       0         
_________________________________________________________________
max_pooling2d_2 (MaxPooling2 (None, 12, 15, 128)       0         
_________________________________________________________________
conv2d_3 (Conv2D)            (None, 10, 15, 192)       73920     
_________________________________________________________________
conv2d_4 (Conv2D)            (None, 8, 15, 192)        110784    
_________________________________________________________________
conv2d_5 (Conv2D)            (None, 6, 15, 128)        73856     
_________________________________________________________________
activation_3 (Activation)    (None, 6, 15, 128)        0         
_________________________________________________________________
max_pooling2d_3 (MaxPooling2 (None, 2, 7, 128)         0         
_________________________________________________________________
flatten_1 (Flatten)          (None, 1792)              0         
_________________________________________________________________
dense_1 (Dense)              (None, 2048)              3672064   
_________________________________________________________________
dense_2 (Dense)              (None, 2048)              4196352   
_________________________________________________________________
dense_3 (Dense)              (None, 200)               409800    
=================================================================
Total params: 8,568,104
Trainable params: 8,568,104
Non-trainable params: 0
_________________________________________________________________
Epoch 1/20
 - 56s - loss: 5.0546 - acc: 0.0269 - val_loss: 4.7716 - val_acc: 0.0521
Epoch 2/20
 - 29s - loss: 4.5856 - acc: 0.0769 - val_loss: 4.4895 - val_acc: 0.0849
Epoch 3/20
 - 30s - loss: 4.2797 - acc: 0.1168 - val_loss: 4.1952 - val_acc: 0.1218
…
