trainingset size: 100000
validationset size: 10000
input_dims:  (64, 64, 3)
nb_labels:  200
nb_labels: 200
x_train.shape  (100000, 64, 64, 3)
y_train.shape  (100000, 200)
x_test.shape  (10000, 64, 64, 3)
y_test.shape  (10000, 200)
_________________________________________________________________
Layer (type)                 Output Shape              Param #   
=================================================================
conv2d_1 (Conv2D)            (None, 54, 61, 48)        6384      
_________________________________________________________________
activation_1 (Activation)    (None, 54, 61, 48)        0         
_________________________________________________________________
max_pooling2d_1 (MaxPooling2 (None, 26, 30, 48)        0         
_________________________________________________________________
conv2d_2 (Conv2D)            (None, 22, 30, 128)       30848     
_________________________________________________________________
activation_2 (Activation)    (None, 22, 30, 128)       0         
_________________________________________________________________
max_pooling2d_2 (MaxPooling2 (None, 10, 14, 128)       0         
_________________________________________________________________
conv2d_3 (Conv2D)            (None, 8, 14, 192)        73920     
_________________________________________________________________
conv2d_4 (Conv2D)            (None, 6, 14, 192)        110784    
_________________________________________________________________
conv2d_5 (Conv2D)            (None, 4, 14, 128)        73856     
_________________________________________________________________
activation_3 (Activation)    (None, 4, 14, 128)        0         
_________________________________________________________________
max_pooling2d_3 (MaxPooling2 (None, 1, 6, 128)         0         
_________________________________________________________________
flatten_1 (Flatten)          (None, 768)               0         
_________________________________________________________________
dense_1 (Dense)              (None, 2048)              1574912   
_________________________________________________________________
dense_2 (Dense)              (None, 2048)              4196352   
_________________________________________________________________
dense_3 (Dense)              (None, 200)               409800    
=================================================================
Total params: 6,476,856
Trainable params: 6,476,856
Non-trainable params: 0
_________________________________________________________________
Epoch 1/20
 - 41s - loss: 5.0416 - acc: 0.0199 - val_loss: 4.8543 - val_acc: 0.0336
Epoch 2/20
 - 30s - loss: 4.7324 - acc: 0.0468 - val_loss: 4.6384 - val_acc: 0.0566
Epoch 3/20
 - 30s - loss: 4.5249 - acc: 0.0708 - val_loss: 4.4746 - val_acc: 0.0743
…
