trainingset size: 100000
validationset size: 10000
input_dims:  (64, 64, 3)
nb_labels:  200
nb_labels: 200
x_train.shape  (100000, 64, 64, 3)
y_train.shape  (100000, 200)
x_test.shape  (10000, 64, 64, 3)
y_test.shape  (10000, 200)
_________________________________________________________________
Layer (type)                 Output Shape              Param #   
=================================================================
conv2d_1 (Conv2D)            (None, 60, 63, 48)        1488      
_________________________________________________________________
activation_1 (Activation)    (None, 60, 63, 48)        0         
_________________________________________________________________
max_pooling2d_1 (MaxPooling2 (None, 29, 31, 48)        0         
_________________________________________________________________
conv2d_2 (Conv2D)            (None, 25, 31, 128)       30848     
_________________________________________________________________
activation_2 (Activation)    (None, 25, 31, 128)       0         
_________________________________________________________________
max_pooling2d_2 (MaxPooling2 (None, 12, 15, 128)       0         
_________________________________________________________________
conv2d_3 (Conv2D)            (None, 10, 15, 192)       73920     
_________________________________________________________________
conv2d_4 (Conv2D)            (None, 8, 15, 192)        110784    
_________________________________________________________________
conv2d_5 (Conv2D)            (None, 6, 15, 128)        73856     
_________________________________________________________________
activation_3 (Activation)    (None, 6, 15, 128)        0         
_________________________________________________________________
max_pooling2d_3 (MaxPooling2 (None, 2, 7, 128)         0         
_________________________________________________________________
flatten_1 (Flatten)          (None, 1792)              0         
_________________________________________________________________
dense_1 (Dense)              (None, 2048)              3672064   
_________________________________________________________________
dense_2 (Dense)              (None, 2048)              4196352   
_________________________________________________________________
dense_3 (Dense)              (None, 200)               409800    
=================================================================
Total params: 8,569,112
Trainable params: 8,569,112
Non-trainable params: 0
_________________________________________________________________
Epoch 1/20
 - 44s - loss: 4.8947 - acc: 0.0340 - val_loss: 4.4323 - val_acc: 0.0771
Epoch 2/20
 - 35s - loss: 4.2267 - acc: 0.1046 - val_loss: 4.0152 - val_acc: 0.1299
Epoch 3/20
 - 35s - loss: 3.9152 - acc: 0.1466 - val_loss: 3.8715 - val_acc: 0.1498
…
