…
  model.add(layers.Convolution2D(192, 3, 1))
/home/sisten/code/python/DD2424-project/models.py:65: UserWarning: Update your `Conv2D` call to the Keras 2 API: `Conv2D(192, (3, 1))`
  model.add(layers.Convolution2D(192, 3, 1))
/home/sisten/code/python/DD2424-project/models.py:67: UserWarning: Update your `Conv2D` call to the Keras 2 API: `Conv2D(128, (3, 1))`
  model.add(layers.Convolution2D(128, 3, 1))
_________________________________________________________________
Layer (type)                 Output Shape              Param #   
=================================================================
conv2d_1 (Conv2D)            (None, 58, 62, 48)        3072      
_________________________________________________________________
activation_1 (Activation)    (None, 58, 62, 48)        0         
_________________________________________________________________
max_pooling2d_1 (MaxPooling2 (None, 28, 30, 48)        0         
_________________________________________________________________
conv2d_2 (Conv2D)            (None, 24, 30, 128)       30848     
_________________________________________________________________
activation_2 (Activation)    (None, 24, 30, 128)       0         
_________________________________________________________________
max_pooling2d_2 (MaxPooling2 (None, 11, 14, 128)       0         
_________________________________________________________________
conv2d_3 (Conv2D)            (None, 9, 14, 192)        73920     
_________________________________________________________________
conv2d_4 (Conv2D)            (None, 7, 14, 192)        110784    
_________________________________________________________________
conv2d_5 (Conv2D)            (None, 5, 14, 128)        73856     
_________________________________________________________________
activation_3 (Activation)    (None, 5, 14, 128)        0         
_________________________________________________________________
max_pooling2d_3 (MaxPooling2 (None, 2, 6, 128)         0         
_________________________________________________________________
flatten_1 (Flatten)          (None, 1536)              0         
_________________________________________________________________
dense_1 (Dense)              (None, 2048)              3147776   
_________________________________________________________________
dense_2 (Dense)              (None, 2048)              4196352   
_________________________________________________________________
dense_3 (Dense)              (None, 200)               409800    
=================================================================
Total params: 8,046,408
Trainable params: 8,046,408
Non-trainable params: 0
_________________________________________________________________
Epoch 1/20
 - 90s - loss: 5.0575 - acc: 0.0187 - val_loss: 4.8656 - val_acc: 0.0333
Epoch 2/20
 - 33s - loss: 4.7644 - acc: 0.0441 - val_loss: 4.6786 - val_acc: 0.0556
Epoch 3/20
 - 33s - loss: 4.6353 - acc: 0.0584 - val_loss: 4.6222 - val_acc: 0.0598
…
