trainingset size: 100000
validationset size: 10000
input_dims:  (64, 64, 3)
nb_labels:  200
nb_labels: 200
x_train.shape  (100000, 64, 64, 3)
y_train.shape  (100000, 200)
x_test.shape  (10000, 64, 64, 3)
y_test.shape  (10000, 200)
_________________________________________________________________
Layer (type)                 Output Shape              Param #   
=================================================================
conv2d_1 (Conv2D)            (None, 58, 61, 48)        4080      
_________________________________________________________________
activation_1 (Activation)    (None, 58, 61, 48)        0         
_________________________________________________________________
max_pooling2d_1 (MaxPooling2 (None, 28, 30, 48)        0         
_________________________________________________________________
conv2d_2 (Conv2D)            (None, 24, 30, 128)       30848     
_________________________________________________________________
activation_2 (Activation)    (None, 24, 30, 128)       0         
_________________________________________________________________
max_pooling2d_2 (MaxPooling2 (None, 11, 14, 128)       0         
_________________________________________________________________
conv2d_3 (Conv2D)            (None, 9, 14, 192)        73920     
_________________________________________________________________
conv2d_4 (Conv2D)            (None, 7, 14, 192)        110784    
_________________________________________________________________
conv2d_5 (Conv2D)            (None, 5, 14, 128)        73856     
_________________________________________________________________
activation_3 (Activation)    (None, 5, 14, 128)        0         
_________________________________________________________________
max_pooling2d_3 (MaxPooling2 (None, 2, 6, 128)         0         
_________________________________________________________________
flatten_1 (Flatten)          (None, 1536)              0         
_________________________________________________________________
dense_1 (Dense)              (None, 2048)              3147776   
_________________________________________________________________
dropout_1 (Dropout)          (None, 2048)              0         
_________________________________________________________________
dense_2 (Dense)              (None, 2048)              4196352   
_________________________________________________________________
dropout_2 (Dropout)          (None, 2048)              0         
_________________________________________________________________
dense_3 (Dense)              (None, 200)               409800    
=================================================================
Total params: 8,047,416
Trainable params: 8,047,416
Non-trainable params: 0
_________________________________________________________________
Epoch 1/50
 - 36s - loss: 5.0487 - acc: 0.0268 - val_loss: 4.7753 - val_acc: 0.0559
Epoch 2/50
 - 28s - loss: 4.5660 - acc: 0.0779 - val_loss: 4.3163 - val_acc: 0.1081
Epoch 3/50
 - 28s - loss: 4.1957 - acc: 0.1255 - val_loss: 4.0471 - val_acc: 0.1452
…
 - 28s - loss: 0.0500 - acc: 0.9854 - val_loss: 9.3133 - val_acc: 0.1958
Epoch 49/50
 - 28s - loss: 0.0423 - acc: 0.9884 - val_loss: 9.2275 - val_acc: 0.2008
Epoch 50/50
 - 28s - loss: 0.0397 - acc: 0.9888 - val_loss: 9.3254 - val_acc: 0.1971
training history:
{'val_loss': [… 'val_acc': [… 'loss': [… 'acc': [… Training time: 
1393.5968029499054
Evaluation results:  [9.325432635498046, 0.1971]
_________________________________________________________________
Layer (type)                 Output Shape              Param #   
=================================================================
conv2d_6 (Conv2D)            (None, 58, 61, 48)        4080      
_________________________________________________________________
activation_4 (Activation)    (None, 58, 61, 48)        0         
_________________________________________________________________
max_pooling2d_4 (MaxPooling2 (None, 28, 30, 48)        0         
_________________________________________________________________
conv2d_7 (Conv2D)            (None, 24, 30, 128)       30848     
_________________________________________________________________
activation_5 (Activation)    (None, 24, 30, 128)       0         
_________________________________________________________________
max_pooling2d_5 (MaxPooling2 (None, 11, 14, 128)       0         
_________________________________________________________________
conv2d_8 (Conv2D)            (None, 9, 14, 192)        73920     
_________________________________________________________________
conv2d_9 (Conv2D)            (None, 7, 14, 192)        110784    
_________________________________________________________________
conv2d_10 (Conv2D)           (None, 5, 14, 128)        73856     
_________________________________________________________________
activation_6 (Activation)    (None, 5, 14, 128)        0         
_________________________________________________________________
max_pooling2d_6 (MaxPooling2 (None, 2, 6, 128)         0         
_________________________________________________________________
flatten_2 (Flatten)          (None, 1536)              0         
_________________________________________________________________
dense_4 (Dense)              (None, 2048)              3147776   
_________________________________________________________________
dense_5 (Dense)              (None, 2048)              4196352   
_________________________________________________________________
dense_6 (Dense)              (None, 200)               409800    
=================================================================
Total params: 8,047,416
Trainable params: 8,047,416
Non-trainable params: 0
_________________________________________________________________
Epoch 1/50
 - 28s - loss: 5.0331 - acc: 0.0284 - val_loss: 4.7199 - val_acc: 0.0577
Epoch 2/50
 - 28s - loss: 4.5321 - acc: 0.0836 - val_loss: 4.3045 - val_acc: 0.1098
Epoch 3/50
 - 28s - loss: 4.1460 - acc: 0.1338 - val_loss: 4.0792 - val_acc: 0.1368
…
